td3_checkpoint.pth (torch_old, 921078 bytes, 44 tensors)

actor.mu.0.weight f4 [128, 33]
0	0x3c43bd42	0.011946978
1	0xbdd56a31	-0.10420645
2	0x3dd3d842	0.10343982
3	0x3f67ff1e	0.9062365
4	0xbf2e863e	-0.6817359
5	0xbe2d895e	-0.16946933
6	0x3ebfede8	0.37486196
7	0xbd39a1af	-0.04532021
8	0x3e3abc0a	0.18235794
9	0xbe550219	-0.20801581
10	0xbe13d17c	-0.1443538
11	0x399385c4	0.00028137688
12	0xbc7e52db	-0.015522684
13	0xbea422cf	-0.32057807
14	0xbd223451	-0.039600674
15	0xbe6cb8c8	-0.23117363
16	0x3ee8432f	0.45363757
17	0x3d39fdd8	0.0454081
18	0xbdd99683	-0.10624411
19	0xbec69955	-0.38788858
20	0xbd74804e	-0.059692673
21	0xbd841a58	-0.06450337
22	0x3d880fa7	0.066436104
23	0x3d1a8b0c	0.03773026
24	0x3c8389ef	0.016056983
25	0x3b90f551	0.0044237752
26	0xbd9916f4	-0.07475081
27	0x3daed4dd	0.08536694
28	0x3dd3d181	0.10342694
29	0x3d785de4	0.060636416
30	0xbcdc95d8	-0.02692692
31	0xbdea2700	-0.1143322
32	0x3fc1f482	1.5152743
33	0x3e769547	0.24080382
34	0xbd5e7d38	-0.054318637
35	0xbc276d29	-0.010218897
36	0xbedaef2f	-0.42760608
37	0xbe59a918	-0.2125591
38	0x3dc72e30	0.097256064
39	0x3edac05b	0.4272488
40	0xbdaeedb4	-0.08541432
41	0x3dc938f2	0.098253146
42	0x3dc77775	0.097395815
43	0x3e12e5ea	0.14345518
44	0xbd9a48ee	-0.075334415
45	0x3d7a2722	0.061072476
46	0x3e2e51da	0.17023411
47	0x3e97d0e5	0.2965156
48	0x3e026f70	0.12737823
49	0x3c5ae0cf	0.013359263
50	0x3e04d227	0.12970792
51	0xbf18f7f3	-0.5975334
52	0x3dbbe86e	0.09175192
53	0xbdd157b4	-0.10221806
54	0x3e557037	0.20843588
55	0xbdee1be8	-0.116264164
56	0x3e54eaae	0.20792648
57	0xbd4a884f	-0.0494464
58	0xbcc0b404	-0.023523338
59	0x3dfb1b49	0.122610636
60	0x3d3c418d	0.04596095
61	0xbe001311	-0.12507273
62	0x3df2d36c	0.11856732
63	0x3dca54fe	0.09879492
64	0x3db090b8	0.08621353
65	0x3fa2b0c2	1.2710192
66	0x3e023599	0.12715758
67	0x3e91c2b5	0.28468862
68	0xbd19814f	-0.037476834
69	0x3e9c5e4e	0.305407
70	0xbe5f5631	-0.21810223
71	0xbf24d4a2	-0.6438695
72	0xbddd52b5	-0.10806791
73	0xbdd5e75a	-0.104445174
74	0x3e8946d7	0.2681186
75	0xbe055c52	-0.13023499
76	0xbe0e36aa	-0.1388804
77	0x3d2b7a9d	0.04186498
78	0x3e4b9ebe	0.19884774
79	0xbf072777	-0.52794594
80	0x3e85058e	0.259808
81	0x3dddcc5d	0.10829995
82	0xbe79dcee	-0.24400684
83	0xbf8406e5	-1.0314604
84	0xbe8a7e0a	-0.27049285
85	0xbde6315c	-0.11239883
86	0x3c69a4ce	0.014260484
87	0xba610fc5	-0.00085854187
88	0x3b83d2ed	0.004022947
89	0xbe8d0bde	-0.27548116
90	0x3d77f638	0.060537547
91	0x3da21ae4	0.07915285
92	0x3d729296	0.059221826
93	0x3dd8d3ed	0.10587297
94	0xbe06edf7	-0.13176714
95	0x3d9ecbc8	0.07753712
96	0x3ceaf8a0	0.028683007
97	0x3dd4cf5c	0.10391113
98	0xbf1baa6f	-0.60806936
99	0x3d679a1c	0.056543455
100	0x3da3dba7	0.0800088
101	0x3db7cbda	0.089744285
102	0x3f1c74b9	0.61115605
103	0xbeddd8b3	-0.4332939
104	0x3ec7beee	0.39012855
105	0x3e06f8c7	0.13180839
106	0x3e94feb0	0.2910056
107	0x3e17399d	0.14768071
108	0x3d859cde	0.06524061
109	0xbddde733	-0.108351134
110	0xbcb56469	-0.022142606
111	0xbd5afa3e	-0.053461306
112	0xbea3a4bc	-0.3196162
113	0x3e7b29e2	0.24527696
114	0xbda9b071	-0.08285607
115	0x3e820335	0.25393072
116	0xbec1644f	-0.37771842
117	0xbe41c748	-0.18923676
118	0x3f922e15	1.1420313
119	0x3cf4a33b	0.02986299
120	0x3d24f734	0.040274814
121	0xbd1ccff1	-0.038284246
122	0xbe0fb0a4	-0.14032227
123	0x3dc39509	0.095499106
124	0xbc5eb1b0	-0.013592169
125	0x3d91d4b4	0.07120648
126	0x3d830131	0.063967116
127	0xbcd88f31	-0.026435466
128	0x3df59d98	0.11992949
129	0xbe82c81b	-0.25543293
130	0x3daa0fa0	0.083037615
131	0xbf45b299	-0.77225643
132	0xbe49bc4f	-0.1970074
133	0xbe066971	-0.1312616
134	0xbdca701b	-0.09884664
135	0xbe42bcf6	-0.19017395
136	0x3e34616f	0.17615293
137	0x3e885a7c	0.26631534
138	0xbd6e8bd5	-0.058238823
139	0xbe672f58	-0.22576654
140	0xbcc8f9e5	-0.024533221
141	0x3db2a914	0.08723655
142	0xbd2a5562	-0.041585334
143	0xbe1cf3f7	-0.1532744
144	0x3de93428	0.11386901
145	0x3db20bc5	0.08693651
146	0x3e96a52e	0.29422897
147	0x3eb90b4a	0.36141425
148	0xbf22e99d	-0.63637716
149	0xbf832950	-1.0246983
150	0xbdeaf5de	-0.11472677
151	0x3dcd1b26	0.10014944
152	0x3dac4294	0.08411136
153	0xbe16da56	-0.14731726
154	0xbea30748	-0.31841493
155	0xbde76a5e	-0.11299585
156	0x3dc219e3	0.09477594
157	0x3db5b55e	0.08872484
158	0x3dea07d3	0.114272736
159	0x3d9f7859	0.07786626
160	0xbd706106	-0.05868628
161	0xbd84132e	-0.06448971
162	0x3db4ee0f	0.088344686
163	0xbd87aae3	-0.06624391
164	0x3ecfc4b2	0.40579754
165	0xbe4e3096	-0.20135722
166	0x3e4f27d9	0.20230044
167	0x3e2123e1	0.15736343
168	0xbdfd5462	-0.1236961
169	0x3b998844	0.0046854336
170	0xbf2f2844	-0.68420815
171	0x3e6f8f9b	0.23394625
172	0xbc4e45df	-0.012589901
173	0x3e8e3aa4	0.27779114
174	0x3d73fc41	0.05956674
175	0x3d3a3f80	0.045470715
176	0x3e603dab	0.21898524
177	0x3dff4afb	0.12465473
178	0x3d97f905	0.074205436
179	0x3eb205bb	0.34769997
180	0xbd3fe07e	-0.04684495
181	0x3c87da4a	0.01658358
182	0x3d806729	0.06269676
183	0xbd1f9cbc	-0.038967833
184	0xbf455116	-0.7707685
185	0xbdc23dfa	-0.09484477
186	0x3ba5a077	0.0050545293
187	0xbc800b2d	-0.015630329
188	0xbe16549b	-0.14680712
189	0x3e48e53c	0.19618696
190	0x3dcd7eaf	0.100339286
191	0x3bde4540	0.0067831576
192	0xbca67dda	-0.020323683
193	0x3e842bc5	0.25814644
194	0x3e130a90	0.14359498
195	0xbe8fef57	-0.2811229
196	0xbd5df2f8	-0.05418679
197	0xbede1750	-0.4337716
198	0xbe31d9f7	-0.17368303
199	0xbddaa557	-0.10676067
200	0xbdcac5fd	-0.099010445
201	0xbe2b800a	-0.16748062
202	0x3e019ecb	0.12658231
203	0xbe6326db	-0.22182791
204	0xbed84d83	-0.42246637
205	0xbcbe2ba4	-0.023214169
206	0x3d35a4a9	0.044346485
207	0x3e93e841	0.28888133
208	0x3dc47439	0.0959248
209	0x3de7a436	0.113106176
210	0xbc8fdf87	-0.01756264
211	0x3ed4c993	0.4156004
212	0xbd488378	-0.048953503
213	0xbda07fc8	-0.07836872
214	0x3f6ed10f	0.9328775
215	0x3f75c2bf	0.96000284
216	0x3f643990	0.89150333
217	0xbe5b2a7e	-0.21402928
218	0x3c19ea26	0.009394204
219	0x3e7f87b5	0.24954112
220	0xb959973c	-0.00020751072
221	0x3dd32f7e	0.10311793
222	0x3c6ee786	0.014581567
223	0xbd99b689	-0.07505519
224	0xbe772000	-0.24133301
225	0xbdff1d22	-0.124567285
226	0x3e0c6577	0.13710581
227	0x3e16f6e4	0.14742619
228	0xbe1bab93	-0.15202169
229	0xbdea7ca2	-0.11449553
230	0x3f4cb9f8	0.79971266
231	0xbdde6a9e	-0.10860179
232	0x3da1e74b	0.07905444
233	0xbdace5d8	-0.08442277
234	0xbf32d626	-0.69858015
235	0x3c62d14c	0.013843846
236	0xbec685aa	-0.38773853
237	0xbf223d9c	-0.6337526
238	0xbdae7da0	-0.08520055
239	0x3e2cbde6	0.16869316
240	0x3ca5e748	0.020251885
241	0xbe0c5fde	-0.13708445
242	0x3cee5623	0.029093808
243	0x3ce6687b	0.028125992
244	0x3d5ecf99	0.0543972
245	0xbe576bc0	-0.21037197
246	0x3e035c04	0.1282807
247	0x3da17ee1	0.07885528
248	0xbefb372b	-0.49065527
249	0xbeaf68ab	-0.34259543
250	0x3cdac2e0	0.026704252
251	0xbbfa4aba	-0.0076383026
252	0xbe25a093	-0.16174535
253	0x3e2d8020	0.16943407
254	0x3c938025	0.01800544
255	0x3cdfd18a	0.027321596

actor.mu.0.bias f4 [128]
0	0xbc05e314	-0.008171815
1	0x3c8798fd	0.016552443
2	0x3dc08527	0.09400397
3	0xbe7153a2	-0.2356706
4	0x3d84e06f	0.0648812
5	0xbe526a32	-0.20548323
6	0xbdeabf1a	-0.11462231
7	0xbe4a9c2e	-0.1978614
8	0xbe64329d	-0.22284932
9	0xbe223efe	-0.15844342
10	0xbd21a5fc	-0.039464936
11	0x3d61cd68	0.05512753
12	0xbd956d17	-0.07296198
13	0x3ce56b6f	0.02800533
14	0xbe83c868	-0.25738835
15	0x3dad8674	0.084729105
16	0xbdbd72e7	-0.092504315
17	0x3d623d73	0.055234384
18	0xbc15c32c	-0.009140771
19	0x3d21e8f5	0.039528806
20	0xbe61c7d2	-0.22048882
21	0xbe98e94a	-0.29865485
22	0x3dcc12b7	0.09964507
23	0x3e0b4fae	0.13604614
24	0xbe0322f7	-0.12806307
25	0xbe23a653	-0.15981416
26	0x3dbc2c72	0.09188165
27	0x3e155366	0.14582595
28	0xbd664c5c	-0.056225166
29	0x3c83465e	0.016024765
30	0xbd1c91ef	-0.03822511
31	0xbe9ba840	-0.30401802
32	0xbe82194f	-0.25409934
33	0xbb3dac1f	-0.0028941703
34	0xbd4a5bba	-0.049403884
35	0xbe32b98b	-0.17453592
36	0xbd4a845b	-0.04944263
37	0xbd50480c	-0.05084996
38	0xbe7f7276	-0.24946007
39	0xbd9aec7f	-0.07564639
40	0xbe772c8e	-0.2413809
41	0xbe3564ee	-0.17714283
42	0x3e604f97	0.21905361
43	0xbb803f12	-0.0039137686
44	0xbd2b8660	-0.041876197
45	0xbd38b9ce	-0.045099072
46	0xbe33c791	-0.17556597
47	0x3dd41323	0.103552125
48	0xbeafc1b4	-0.3432747
49	0xbd5d2055	-0.053985912
50	0xbef095d8	-0.46989322
51	0x3d07f84a	0.03319577
52	0xbe16483d	-0.14675994
53	0x3dc069c7	0.093951754
54	0xbe4710e0	-0.19440031
55	0xbd15103c	-0.036392435
56	0xbd852140	-0.065004826
57	0xbd632dd5	-0.05546363
58	0xbd56644a	-0.052341737
59	0xbed976f4	-0.42473567
60	0xbe712b61	-0.23551704
61	0xbebb699d	-0.36604014
62	0xbbb148d8	-0.005410295
63	0xbcd59f55	-0.026076952
64	0xbd9ec707	-0.07752805
65	0x3d9a5d48	0.07537323
66	0xbd2fdb17	-0.04293355
67	0xbe488cc2	-0.19584945
68	0x3dc35778	0.09538168
69	0xbb194dd3	-0.0023392334
70	0x3d81b827	0.063339524
71	0xbdadeb99	-0.08492202
72	0x3dd345d7	0.10316055
73	0xbce96e80	-0.028495073
74	0xbe45d690	-0.1932013
75	0xbe14c3e2	-0.14527848
76	0x3db2650a	0.08710678
77	0xbe891475	-0.2677342
78	0xbe53865d	-0.20656724
79	0xbe495ccc	-0.19664305
80	0xbdd6f79a	-0.10496445
81	0x3d64d9d8	0.055871814
82	0xbdee28ee	-0.116289005
83	0x3dafa01d	0.08575461
84	0xbe185e6f	-0.14879774
85	0x3d9754e8	0.073892415
86	0xbe27b318	-0.16376913
87	0xbdf9f242	-0.1220441
88	0x3d462205	0.048372287
89	0x3c5e969c	0.013585713
90	0xbc9d59e1	-0.019207897
91	0x3c35babe	0.011091886
92	0xbb41c158	-0.0029564705
93	0xbe7d6e28	-0.24749053
94	0x3d1b6884	0.03794147
95	0xbe879d1b	-0.2648705
96	0x3e909134	0.2823578
97	0x3d0fa97c	0.035073742
98	0xbde3cba9	-0.111228295
99	0x3c9884e6	0.018618058
100	0xbe579d7f	-0.21056174
101	0xbe5ccc97	-0.2156242
102	0xbbee93ec	-0.0072808173
103	0xbe622a09	-0.22086348
104	0xbd4f56a8	-0.05061975
105	0x3e082077	0.13293634
106	0xbcb62402	-0.022233967
107	0xbe0cd693	-0.13753729
108	0x3d26b962	0.04070414
109	0xbe25b96f	-0.16184019
110	0xbbef6fee	-0.007307044
111	0xbe2e5d3c	-0.17027754
112	0x3cb1ca4d	0.02170291
113	0x3d38d06c	0.04512064
114	0xbdcb3ad2	-0.099233285
115	0xbe43fc41	-0.19139196
116	0xbe3a9892	-0.18222263
117	0x3b101401	0.002198458
118	0xbe23e606	-0.16005716
119	0xbe556c11	-0.20842005
120	0x3cee0d8e	0.029059198
121	0xbe1906ec	-0.14944047
122	0xbe869979	-0.26288965
123	0xbe538b4b	-0.20658605
124	0x3e172fe9	0.1476437
125	0xbdbd45ca	-0.09241827
126	0xbe65ada7	-0.22429524
127	0xbe9d5136	-0.30726022

actor.mu.2.weight f4 [128, 128]
0	0xbddd92fc	-0.10819051
1	0xbd3a349c	-0.04546033
2	0xbe85e4cf	-0.2615113
3	0xbe4a9771	-0.19784333
4	0xbdad5872	-0.08464135
5	0xbe69638c	-0.2279188
6	0xbd19fff7	-0.037597623
7	0xbe99e514	-0.30057585
8	0x3dacb597	0.08433073
9	0x3dce5833	0.100754164
10	0x3e17fbad	0.148421
11	0xbe174089	-0.14770712
12	0x3d7b86f1	0.061407987
13	0x3dc5693c	0.096392125
14	0xbd121435	-0.035663802
15	0xbdb7dfb0	-0.08978212
16	0xbec1a3e7	-0.3782036
17	0xbd76e4d5	-0.060276825
18	0xbda24678	-0.07923597
19	0x3dbe24f6	0.092843935
20	0x3e144019	0.14477576
21	0xbe129172	-0.14313295
22	0xbe5b0b7d	-0.21391101
23	0xbd7ead19	-0.062176798
24	0x3e90b366	0.2826187
25	0x3e8be7c7	0.2732527
26	0xbe0dffe7	-0.1386715
27	0xbe18eebd	-0.14934821
28	0x3e0171a7	0.12641011
29	0x3ec0d210	0.37660265
30	0xbdb81e26	-0.08990125
31	0xbe4678ee	-0.19382069
32	0x3e6368fa	0.22208014
33	0xbe9ec98f	-0.31013152
34	0x3e11315c	0.14178985
35	0xbd7280db	-0.059204917
36	0xbe85b9d7	-0.26118347
37	0x3dcf6b7c	0.10127923
38	0xbe3240bf	-0.17407511
39	0xbda0a1e6	-0.0784338
40	0x3d1c69f7	0.038186993
41	0x3da750b5	0.081696905
42	0x3e81b40c	0.25332677
43	0xbf395606	-0.72396886
44	0xbe80dff1	-0.25170854
45	0xbe103f5c	-0.1408667
46	0x3e3fa0e4	0.18713719
47	0xbe19e27f	-0.15027808
48	0xbf0f359b	-0.5594117
49	0x3c811bd2	0.015760336
50	0x3e23c375	0.1599253
51	0xbee489ea	-0.4463647
52	0xbd4b3745	-0.049613256
53	0x3e818f83	0.25304803
54	0xbd38af09	-0.0450888
55	0xbdf098b5	-0.117478766
56	0x3dd0f319	0.10202617
57	0xbd9fed7d	-0.07808969
58	0x3dbd2c95	0.09237019
59	0xbec8b343	-0.39199266
60	0x3c20ff14	0.00982644
61	0xbe389999	-0.18027343
62	0xbe1cf2dc	-0.15327018
63	0xbe40b0ea	-0.18817487
64	0xbe5c85d7	-0.21535431
65	0x3e1dd9e7	0.15415154
66	0xbf214cbb	-0.63007706
67	0xbe3665d7	-0.17812286
68	0x3de0fcc2	0.1098571
69	0xbd51ac45	-0.05118968
70	0xbeb57f62	-0.35448748
71	0x3d47ee6f	0.048811372
72	0xbdba12ea	-0.09085639
73	0x3e0cd4d6	0.13753065
74	0x3e264a39	0.16239251
75	0x3da4f55b	0.0805461
76	0x3e524adf	0.20536374
77	0x3e4e057e	0.20119283
78	0xbe864f91	-0.2623258
79	0x3e8abc88	0.27096963
80	0x3e23d96c	0.16000909
81	0xbee8a21e	-0.45436186
82	0xbe59b3cc	-0.21259993
83	0x3e035352	0.12824753
84	0x3e7d99b7	0.24765669
85	0xbdf438db	-0.11924907
86	0xbc8624b2	-0.01637492
87	0x3e3df719	0.18551292
88	0x3d64c4b8	0.055851668
89	0xbe40d53a	-0.1883134
90	0x3eab36ce	0.3344025
91	0xbdb70ca2	-0.089379564
92	0xbe92a8a5	-0.2864429
93	0x3e35cd38	0.17754066
94	0xbd248a7e	-0.04017114
95	0xbd6849ae	-0.05671089
96	0xbdf5c9ec	-0.12001404
97	0xbe5f8303	-0.21827321
98	0xbd7be50c	-0.061497733
99	0x3d69bfaf	0.05706757
100	0xbea680ec	-0.32520235
101	0x3db7ff45	0.08984236
102	0xbe586084	-0.21130568
103	0xbf0315b8	-0.51205015
104	0x3d2cf73f	0.04222798
105	0x3e3673e5	0.17817648
106	0xbd1b151b	-0.037861925
107	0xbee3a8d3	-0.4446474
108	0xbe0be0f0	-0.13660026
109	0x3b82839f	0.0039829756
110	0xbe38ad49	-0.18034853
111	0xbbf0e0db	-0.0073510236
112	0x3c83f6b8	0.016108856
113	0x3d95ff63	0.07324102
114	0xbdedab29	-0.11604912
115	0x3ec7565a	0.3893307
116	0x3e335622	0.17513326
117	0xbdab5986	-0.083666846
118	0x3b7bd23e	0.0038424875
119	0xbdc98523	-0.09839847
120	0xbed39f61	-0.41332534
121	0xbe1d066f	-0.15334485
122	0x3e6850a4	0.22687012
123	0x3ce803f4	0.028322197
124	0xbcfd8b1a	-0.030950118
125	0xbeafea16	-0.3435828
126	0xbd2e2783	-0.04251815
127	0x3c0490d5	0.008091171
128	0x3c9cf324	0.019158907
129	0xbe824444	-0.25442708
130	0xbe47fb58	-0.19529474
131	0x3e9fe227	0.31227228
132	0x3e091fea	0.1339108
133	0x3db9e0db	0.09076091
134	0xbe92e6a1	-0.2869158
135	0xbdc6ec99	-0.09713096
136	0x3eaad211	0.33363393
137	0x3dd592ef	0.10428416
138	0x3e73e5dc	0.23818153
139	0xbeb98218	-0.36232066
140	0x3cc1211c	0.023575358
141	0x3e44a7ab	0.19204585
142	0xbe1ad870	-0.15121627
143	0x3d8e1075	0.06936733
144	0xbdde9c2d	-0.10869632
145	0xbe11f420	-0.14253283
146	0x3e589321	0.21149875
147	0xbd14660c	-0.036230132
148	0xbd2781c1	-0.040895227
149	0x3e23067a	0.1592044
150	0xbe2c2b20	-0.16813326
151	0xbe5bf2d4	-0.2147935
152	0xbe21348a	-0.15742698
153	0x3dd4a4fe	0.10383032
154	0x3e2db3d4	0.1696313
155	0xbeb0f509	-0.34561947
156	0x3cf9ddb3	0.030501222
157	0x3dbe09d0	0.09279215
158	0xbe147a4b	-0.14499776
159	0xbd345ba6	-0.044032715
160	0xbbc725c2	-0.006077499
161	0xbe336c3f	-0.17521761
162	0x3d3b408c	0.045715854
163	0xb9e9981a	-0.00044554548
164	0x3e33ff6a	0.17577901
165	0xbe16bb20	-0.1471982
166	0xbec79cf2	-0.38986927
167	0x3cd125bd	0.02553069
168	0xbdbae756	-0.09126155
169	0xbec223e4	-0.37918007
170	0xbe3b0dd0	-0.18266988
171	0xbe4d0508	-0.2002145
172	0xbe89bc17	-0.26901314
173	0xbe8177a2	-0.25286585
174	0x3e1b4031	0.15161206
175	0xbf3b39ff	-0.7313537
176	0x3e0770b6	0.1322659
177	0x3dce2c51	0.100670464
178	0x3df052b7	0.117345266
179	0x3e2b73e2	0.16743425
180	0x3dbd9176	0.0925626
181	0x3e06b6d9	0.13155688
182	0xbe298bcc	-0.16557235
183	0x3dce0332	0.10059203
184	0xbe230a95	-0.15922005
185	0xbdd4b81f	-0.10386681
186	0xbe987d07	-0.29782888
187	0xbeb806ea	-0.35942775
188	0xbe6eefcc	-0.23333663
189	0xbca0dddf	-0.019637046
190	0x3e84f39d	0.25967112
191	0xbe0b2345	-0.13587673
192	0xbb9dc2f9	-0.0048145023
193	0xbe3e6120	-0.18591738
194	0xba92db69	-0.0011204305
195	0x3e2def08	0.16985714
196	0x3c861f9a	0.01637249
197	0xbe706918	-0.2347759
198	0x3d92e43d	0.07172439
199	0x3e9cae7d	0.30601874
200	0x3e1b5b5b	0.15171568
201	0xbef52dea	-0.47886592
202	0xbebde4ac	-0.37088525
203	0x3e33ed9e	0.17571113
204	0x3ded2b21	0.11580492
205	0x3d0396f6	0.03212639
206	0xbdb7abff	-0.089683525
207	0xbecfb566	-0.40568084
208	0x3de59572	0.11210145
209	0x3e020dd9	0.12700595
210	0xbe088df0	-0.13335395
211	0x3e5dc5ca	0.21657482
212	0xbd9382c6	-0.072026774
213	0xbdd762ec	-0.10516915
214	0xbe34fb84	-0.1767407
215	0x3d1c7d5d	0.038205493
216	0xbb06c98e	-0.0020566913
217	0xbd6d8295	-0.05798586
218	0x3d1163ed	0.035495687
219	0x3e88a7c6	0.266905
220	0x3d40ed95	0.047101576
221	0xbe216068	-0.15759432
222	0xbe9f5dda	-0.3112629
223	0x3ea810a6	0.32825202
224	0xbdafa617	-0.08576601
225	0x3e89de67	0.26927492
226	0xbd96efa6	-0.07369928
227	0x3e2548d3	0.16141061
228	0x3dd94ba8	0.106101334
229	0xbf151d69	-0.58248
230	0xbe8e05cd	-0.277388
231	0x3ee22037	0.44165203
232	0x3e848d7d	0.25889197
233	0xbd6fce15	-0.058546145
234	0xbe8438f8	-0.25824714
235	0xbd9287e0	-0.07154822
236	0x3dd91b63	0.10600927
237	0x3d639acd	0.05556755
238	0x3e80091d	0.25006953
239	0xbe9d3467	-0.30704042
240	0x3e785771	0.24252106
241	0x3d836c9c	0.064172
242	0xbe399c6c	-0.18126076
243	0xbe05a476	-0.13051018
244	0x3e079c69	0.1324326
245	0x3a34362d	0.0006874528
246	0x3e02f904	0.12790304
247	0xbdd3a613	-0.103344105
248	0xbdd3f3c9	-0.10349233
249	0x3d06f095	0.03294428
250	0xbe849bd5	-0.2590014
251	0xbdd9c31c	-0.10632917
252	0xbe138430	-0.14405894
253	0xbde35e35	-0.11101953
254	0x3e9886b7	0.2979028
255	0x3d1fc948	0.039010316

actor.mu.2.bias f4 [128]
0	0xbdbce367	-0.09223061
1	0xbe3a4670	-0.18190932
2	0xbdc5f82f	-0.09666478
3	0xbdc050c8	-0.09390408
4	0x3df89eb9	0.12139649
5	0x3e0cb768	0.13741839
6	0xbe5c00b5	-0.21484645
7	0xbca0f884	-0.019649751
8	0xbdebd10a	-0.115144804
9	0xbd4e464e	-0.050360017
10	0xbe1b224a	-0.15149799
11	0xbcff0d8e	-0.031134393
12	0xbce9e700	-0.028552532
13	0xbe2acada	-0.16678944
14	0x3bc9392a	0.0061408477
15	0x3d92865f	0.071545355
16	0xbceff3b0	-0.029291004
17	0xbd45fb3d	-0.048335303
18	0xbdcf5cb1	-0.10125101
19	0xbb812372	-0.003940993
20	0xbe2f82eb	-0.17139785
21	0x3cdb4003	0.026763922
22	0xbd172900	-0.036904335
23	0xbd50715f	-0.05088937
24	0xbd5e2c14	-0.054241255
25	0x3cef5180	0.029213667
26	0xbcf11da8	-0.029433087
27	0xbe6144ff	-0.21998976
28	0x3d96c19b	0.07361146
29	0xbe329f39	-0.17443551
30	0xbe3b4cf8	-0.1829108
31	0x3b801984	0.0039092917
32	0xbc534cac	-0.012896698
33	0xbe1b09e4	-0.15140492
34	0xbd9c2529	-0.07624275
35	0xbdfc3eca	-0.123166636
36	0x3e15e421	0.14637806
37	0xbe0c25ac	-0.13686246
38	0xbe36319d	-0.17792363
39	0xbdc9bd91	-0.0985061
40	0xbe061f43	-0.13097863
41	0xbc5e39b2	-0.01356356
42	0x3cc61277	0.024178727
43	0xbd89a74c	-0.067213625
44	0xbd65aed1	-0.05607492
45	0xbd8487ff	-0.06471252
46	0xbdd3b642	-0.10337497
47	0xbe1ac16f	-0.15112852
48	0x3de78fef	0.1130675
49	0x3dcfb819	0.10142536
50	0xbd6a0be5	-0.05714025
51	0x3c944b1d	0.018102223
52	0xbd9c03ae	-0.07617889
53	0x3d6b70ef	0.05748075
54	0xbe5c7987	-0.21530734
55	0xbe22c0c9	-0.15893854
56	0xbd36b0b4	-0.04460211
57	0xbe241356	-0.16023001
58	0xbddafef6	-0.10693161
59	0xbd153bc8	-0.036433965
60	0xbca10547	-0.019655837
61	0xbe0139a0	-0.12619638
62	0xbd1ac8ef	-0.03778928
63	0xbe614c03	-0.22001652
64	0x3b14ee9a	0.0022725225
65	0xbe31064c	-0.17287558
66	0xbe223984	-0.15842253
67	0x3dbb6297	0.09149664
68	0xbe027639	-0.12740411
69	0xbcc73b96	-0.024320405
70	0xbd968aaf	-0.073506705
71	0xbd5b53f7	-0.053546872
72	0xbdaa473c	-0.08314368
73	0xbd4f4473	-0.050602388
74	0x3c85e9bb	0.016346803
75	0xbdf461f6	-0.11932747
76	0x3bbc8287	0.0057528648
77	0xbd2c49a9	-0.042062435
78	0xbe316d56	-0.17326865
79	0x3cbd61c5	0.02311791
80	0x3bb2f260	0.0054610223
81	0xbd900fdb	-0.07034274
82	0xbd9ee08c	-0.07757673
83	0xbd2edda5	-0.042691845
84	0xbdc168cc	-0.094438165
85	0xbdcab343	-0.09897473
86	0xbe189634	-0.14901048
87	0xbe058b8e	-0.13041517
88	0xbc503283	-0.012707355
89	0x3d3f42bb	0.0466945
90	0xbe22a487	-0.15883075
91	0x3db808db	0.08986064
92	0x3cb9b993	0.022671496
93	0x3d939eed	0.07208047
94	0xbe153bf9	-0.14573659
95	0xbdd9a795	-0.10627667
96	0x3d318bb7	0.043346133
97	0xbdb81971	-0.089892276
98	0x3dc1c319	0.0946104
99	0x3e22cdc1	0.15898801
100	0xbd412a1b	-0.047159296
101	0xbe04f1f4	-0.12982923
102	0x3d87ce93	0.06631198
103	0xbe099f52	-0.13439682
104	0xbd8d7818	-0.06907672
105	0xbda95172	-0.082674876
106	0xbd84b7b8	-0.06480354
107	0xbd95cae1	-0.07314087
108	0xbdafad39	-0.085779615
109	0x3e23f02d	0.16009589
110	0xbdcfc9bb	-0.10145899
111	0x3de4a768	0.11164743
112	0xbda95e17	-0.08269899
113	0xbd57bd40	-0.052670717
114	0xbdf060d7	-0.11737221
115	0x3e4e298d	0.20133038
116	0xbd92426b	-0.071415745
117	0x3d9385ec	0.07203278
118	0xbb19a03f	-0.0023441461
119	0xbde8e2df	-0.11371397
120	0x3e034b18	0.12821615
121	0xbdaa5948	-0.0831781
122	0x3a6b6aeb	0.00089804706
123	0xbe417851	-0.18893553
124	0xbab87961	-0.001407426
125	0x3d803d32	0.06261672
126	0xbd439e37	-0.047758307
127	0x3d29cf3f	0.04145741

actor.mu.4.weight f4 [128, 128]
0	0xbe063e36	-0.13109669
1	0x3ce70bff	0.028203962
2	0xbd4ff8e0	-0.050774455
3	0xbdbd739b	-0.092505656
4	0xbe4f794e	-0.20261118
5	0x3c81dffe	0.015853878
6	0x3dbf6737	0.093458585
7	0x3e270666	0.16311035
8	0xbf0cc2ff	-0.5498504
9	0x3e517a05	0.20456703
10	0xbe3bae04	-0.183281
11	0x3d03f5f0	0.032216966
12	0xbd26ded1	-0.040739838
13	0xbe2df3e2	-0.16987565
14	0xbe567167	-0.20941697
15	0xbe9f0563	-0.31058797
16	0xbec5d92f	-0.3864226
17	0x3bd57ef9	0.0065153805
18	0xbec9e1e6	-0.3943016
19	0xbe86a42b	-0.26297125
20	0xbd5036b6	-0.050833426
21	0x3c4f5465	0.012654399
22	0x3d907b0d	0.0705472
23	0xbdad45c7	-0.084605746
24	0x3cb636e9	0.02224298
25	0x3c91a343	0.017778045
26	0xbdb11007	-0.08645635
27	0x3e94c6eb	0.29058012
28	0x3e3b6365	0.18299635
29	0x3e4d0f71	0.20025422
30	0xbed9cba3	-0.42538175
31	0xbecc1eed	-0.39867344
32	0xbd03f821	-0.032219056
33	0x3e47e9d4	0.19522792
34	0x3d8664bf	0.065621845
35	0xbdd2c6ac	-0.102918
36	0xbe535cd1	-0.20640875
37	0x3df24732	0.11829986
38	0xbec7c47a	-0.39017087
39	0xbd96c391	-0.0736152
40	0xbea49562	-0.3214522
41	0x3cf46fcc	0.029838465
42	0x3e3a1411	0.18171717
43	0xbece2a35	-0.40266576
44	0xbea39017	-0.3194587
45	0xbe916d6a	-0.2840379
46	0xbdd0c6a7	-0.1019414
47	0x3e8f7c74	0.28024638
48	0x3e17211e	0.14758727
49	0x3cef397b	0.029202214
50	0xbda4ffe2	-0.08056618
51	0x3d9fcd5c	0.07802841
52	0x3bdf853d	0.006821303
53	0x3e1da256	0.15393957
54	0xbf29d45b	-0.66339654
55	0xbda25a48	-0.07927376
56	0x3d1223f0	0.035678804
57	0xbd17d55e	-0.037068717
58	0xbe04dba1	-0.12974407
59	0xbe408002	-0.18798831
60	0xbee7442a	-0.45169193
61	0x3d83305a	0.06405707
62	0x3d16b243	0.036791097
63	0xbe8b49e0	-0.272048
64	0x3efb8ba4	0.49129975
65	0xbe11da5b	-0.14243452
66	0x3e5d1092	0.21588352
67	0x3e513810	0.20431542
68	0xbe823c21	-0.254365
69	0x3d7b3e99	0.061338995
70	0xbe499eda	-0.19689503
71	0x3dc1699e	0.09443973
72	0x3e208934	0.15677339
73	0xbe7cd39e	-0.246901
74	0x3d4893c3	0.04896904
75	0x3e511b03	0.2042046
76	0x3e327d80	0.17430687
77	0x3ddaa758	0.106764495
78	0x3d1cb95b	0.038262706
79	0xbe415056	-0.18878302
80	0xbe27b00c	-0.1637575
81	0x3e297a65	0.16550596
82	0x3e6fb803	0.23410039
83	0x3ed292e5	0.41127697
84	0x3e2229a8	0.15836203
85	0xbf153fdb	-0.5830056
86	0xbd76f226	-0.060289524
87	0xbe710870	-0.23538375
88	0xbe2ae28d	-0.16687985
89	0xbd6a445b	-0.057194095
90	0x3ea05b94	0.3131987
91	0xbebdda24	-0.3708049
92	0xbda4fd22	-0.08056094
93	0x3dbf5463	0.09342267
94	0xbec06166	-0.3757431
95	0xbee0f477	-0.43936512
96	0xbd9b099a	-0.07570191
97	0x3e20ebeb	0.15714996
98	0xbe067d8d	-0.13133831
99	0xbc84b0b8	-0.016197547
100	0x3e5e7a49	0.21726336
101	0x3ea27435	0.31729284
102	0xbea073fa	-0.31338483
103	0x3e11e97a	0.1424922
104	0xbed180fa	-0.40918714
105	0xbdf42a93	-0.11922183
106	0xbe2d8b0f	-0.16947578
107	0x3e73736a	0.23774496
108	0xbe7ed1dc	-0.24884742
109	0xbecf4313	-0.4048086
110	0xbe347f34	-0.17626649
111	0xbecd62f1	-0.4011455
112	0x3ddce15a	0.1078517
113	0x3e082a85	0.1329747
114	0xbd3e161e	-0.04640781
115	0xbd23f744	-0.040030733
116	0x3e73dfc9	0.23815836
117	0x3e4cd1f2	0.20001963
118	0x3da89706	0.082319304
119	0xbe916f8b	-0.28405413
120	0xbe24ce20	-0.16094255
121	0xbc95557c	-0.018229239
122	0xbe550cd3	-0.20805673
123	0xbe19d3fd	-0.15022273
124	0x3c2a4e24	0.010394607
125	0x3d886478	0.06659788
126	0xbee79acb	-0.45235285
127	0xbd80c028	-0.06286651
128	0x3e594e71	0.2122133
129	0xbe596806	-0.21231088
130	0x3d136131	0.03598136
131	0xbd8e3050	-0.06942809
132	0x3d48606a	0.048920073
133	0x3e673959	0.2258047
134	0xbe97e86e	-0.29669517
135	0xbe522ff4	-0.20526105
136	0xbe28107d	-0.1641254
137	0x3eacf1d6	0.33778256
138	0x3e40da06	0.1883317
139	0x3d5e08fd	0.05420779
140	0xbe0a96b5	-0.13534053
141	0xbf517be4	-0.8182967
142	0xbe85f762	-0.261653
143	0xbe5c1298	-0.21491468
144	0x3e9b5978	0.30341697
145	0x3de3ed89	0.111292906
146	0x3eababd8	0.33529544
147	0x3dfa0909	0.122087546
148	0x3db7ebba	0.08980508
149	0x3e31e8e6	0.17374
150	0xbd1755d2	-0.03694708
151	0xbe601155	-0.21881612
152	0x3cae9ea4	0.02131588
153	0xbdc1d795	-0.09464947
154	0x3dbff8d7	0.09373634
155	0xbd53ec99	-0.05173931
156	0xbda08d43	-0.078394435
157	0xbe4d9be6	-0.20079002
158	0x3e38914d	0.18024178
159	0x3d2c0234	0.04199429
160	0xbb138e21	-0.0022515135
161	0xbe198857	-0.14993416
162	0xbd6b2fb5	-0.057418544
163	0xbc8383c8	-0.01605405
164	0xbea96746	-0.33086604
165	0xbd92c521	-0.071665056
166	0xbe6adcc7	-0.22935782
167	0x3d0ce6af	0.034399685
168	0xbe184ec2	-0.14873794
169	0x3ef8d34a	0.485987
170	0x3d08bc94	0.033382967
171	0xbef4b75e	-0.47796148
172	0xbc369fe5	-0.01114652
173	0x3ddc1803	0.10746767
174	0xbedd627b	-0.43239197
175	0x3dec05e9	0.11524565
176	0xba3dbee2	-0.00072382216
177	0xbf302f0a	-0.68821776
178	0xbe9c186c	-0.30487382
179	0xbd97233a	-0.07379766
180	0xbe7152b9	-0.23566712
181	0x3e88d1a4	0.26722443
182	0xbe6636ca	-0.22481838
183	0x3da54058	0.08068913
184	0x3e1093db	0.14118902
185	0xbdbe2cfa	-0.09285922
186	0xbeb0fced	-0.34567967
187	0xbdb034e4	-0.08603838
188	0x3c7ae949	0.015314409
189	0xbec626bd	-0.3870143
190	0xbdadd7c8	-0.08488423
191	0xbec2e3be	-0.38064378
192	0xbdd4f229	-0.10397751
193	0xbcccf56d	-0.025019372
194	0xbdca5e73	-0.09881296
195	0xbeb3fff6	-0.3515622
196	0xbe5ad163	-0.21368937
197	0xbdf4d71a	-0.1195509
198	0x3df736ea	0.12071021
199	0x3e8bdd51	0.2731729
200	0xbe1185d0	-0.14211202
201	0x3dcc15de	0.09965108
202	0xbdadac95	-0.08480183
203	0xbde68bab	-0.11257108
204	0x3e7b7315	0.24555619
205	0x3c96d9e5	0.018414447
206	0xbdc527f6	-0.096267626
207	0xbc1d407a	-0.009597892
208	0x3d08d3bb	0.033405047
209	0x3e675c38	0.22593772
210	0x3ba485ca	0.0050208317
211	0xbe67d3e8	-0.2263943
212	0xbecdeb0a	-0.40218383
213	0x3c7b0670	0.015321359
214	0x3c9b7337	0.018975837
215	0xbe8fef6a	-0.28112346
216	0x3e6a4856	0.22879156
217	0x3e4022c0	0.18763256
218	0xbec889d2	-0.3916765
219	0x3dcb6ce2	0.09932877
220	0x3e3b7369	0.18305744
221	0x3e8b8bdc	0.27255142
222	0x3e9a7ff0	0.30175734
223	0xbe3cca04	-0.18436438
224	0x3e83b662	0.25725085
225	0xbcf5c4a6	-0.030000996
226	0xbe8b3b42	-0.27193648
227	0x3e9e540b	0.30923495
228	0x3eade949	0.33967045
229	0xbe96489a	-0.29352266
230	0xbe3c68bc	-0.18399328
231	0xbf0041cf	-0.50100416
232	0xbea46085	-0.3210489
233	0xbdf7e5cb	-0.121043764
234	0xbe3d8b3a	-0.18510142
235	0xbe8e9c5c	-0.27853668
236	0xbdf78807	-0.12086492
237	0xbe42a9bf	-0.19010065
238	0xbec2983e	-0.38006777
239	0x3dbc99d8	0.09209031
240	0x3d863748	0.06553513
241	0xbd916c03	-0.0710068
242	0xbead519c	-0.33851326
243	0xbe8e0fa7	-0.27746317
244	0xbeac52ae	-0.3365683
245	0xbf270979	-0.6524883
246	0x3d5f2e50	0.054487526
247	0x3d617983	0.055047523
248	0xbe9db719	-0.30803755
249	0xbea20748	-0.3164618
250	0xbe54f0dd	-0.20795007
251	0xbf36aa15	-0.71353275
252	0xbe90427f	-0.28175732
253	0xbe6a0068	-0.22851717
254	0x3e413242	0.18866828
255	0x3e9111e7	0.2833397

actor.mu.4.bias f4 [128]
0	0x3d43bfb4	0.047790244
1	0xbaff61f3	-0.0019484147
2	0xbe66020e	-0.22461721
3	0x3dca7ee7	0.09887486
4	0x3b8287a9	0.003983457
5	0xbdd0cb0c	-0.10194978
6	0xbc906684	-0.017627008
7	0xbe0580ab	-0.13037364
8	0x3e7eabdd	0.24870248
9	0xbd3f67a5	-0.046729703
10	0x3c0881b3	0.008331704
11	0xbd92d590	-0.0716964
12	0xbd0c6ab0	-0.034281433
13	0xbd801e36	-0.06255762
14	0xbdaab0f5	-0.08334533
15	0x3da84103	0.08215525
16	0x3ea4422a	0.3208173
17	0xbe2883e3	-0.16456561
18	0xbe8261ff	-0.2546539
19	0xbd63f5a6	-0.05565419
20	0xbe2210f0	-0.15826774
21	0xbd8f7963	-0.070055746
22	0xbe8b53c6	-0.27212352
23	0xbe31bd47	-0.1735736
24	0xbe0aa837	-0.13540731
25	0xbd4a1b58	-0.049342483
26	0x3d3d2a58	0.04618296
27	0xbce7e9d4	-0.02830974
28	0x3ded6d5e	0.11593126
29	0xbdfcf041	-0.12350512
30	0xbdd2140b	-0.10257729
31	0xbe2acfdf	-0.16680859
32	0x3d2b4353	0.041812252
33	0x3bc102a6	0.0058902083
34	0x3d9f1475	0.07767574
35	0x3e24a13b	0.1607713
36	0xbe17bd65	-0.14818342
37	0xbe5fbe4e	-0.21849939
38	0x3dab9723	0.083784364
39	0x3e310334	0.17286378
40	0x3d252e87	0.040327575
41	0x3cd039db	0.025418213
42	0xbe3325f3	-0.17494945
43	0x3bc62ba1	0.0060476814
44	0xbdde8fbb	-0.10867258
45	0x3df8406e	0.12121664
46	0xbda0b217	-0.07846468
47	0x3e8d8d13	0.27646694
48	0xbd1ba192	-0.037995882
49	0xbddf9b3b	-0.1091828
50	0xbe74f1bf	-0.23920344
51	0xbd86371c	-0.0655348
52	0xbe464257	-0.19361244
53	0xbe1f36d2	-0.15548256
54	0xbd9c1fa1	-0.0762322
55	0x3d326128	0.043549687
56	0x3cfd4264	0.030915447
57	0x3db4aa2a	0.08821519
58	0xbe7168f4	-0.23575193
59	0x3de97d1a	0.11400814
60	0x3d15348a	0.03642706
61	0xbe07a0f1	-0.13244988
62	0xbd641d84	-0.05569221
63	0x3df0c739	0.11756749
64	0xbd42fec8	-0.04760626
65	0x3dcc75be	0.09983395
66	0xbe13d114	-0.14435226
67	0xbe3eb9a7	-0.18625508
68	0x3d578f18	0.0526267
69	0x3e027685	0.12740524
70	0x3d97dd4c	0.07415256
71	0x3bdfe07a	0.0068321796
72	0xbe564c4e	-0.20927545
73	0xbe44e15d	-0.19226594
74	0xbe13e28f	-0.14441894
75	0xbd5eb5dd	-0.054372657
76	0xbde2761a	-0.11057682
77	0xbe1f8608	-0.15578473
78	0xbc66abcf	-0.014079048
79	0x3d4c2fd7	0.04985031
80	0x3dcf0d91	0.101100095
81	0x3e0d9436	0.13826069
82	0xbc8eda0f	-0.017437963
83	0xbd92ae8d	-0.07162199
84	0xbe49208f	-0.19641326
85	0x3e12118a	0.14264503
86	0xbddb9fb5	-0.10723821
87	0xbe2c7529	-0.16841568
88	0xbe743b03	-0.23850636
89	0xbe6c52fa	-0.23078528
90	0xbd7eed18	-0.06223783
91	0xbdfbd165	-0.12295798
92	0x3da72fc4	0.081634074
93	0xbe0851f0	-0.13312507
94	0xbd9f1958	-0.07768506
95	0xbd9aef13	-0.07565131
96	0xbd5df127	-0.05418506
97	0x3d08edd1	0.033429924
98	0x3d243c9c	0.040096864
99	0xbd957be2	-0.072990194
100	0x3cd8ffa8	0.026489094
101	0x3d75b7f2	0.059989877
102	0xbe254d6d	-0.16142817
103	0xbd8e5c9f	-0.0695126
104	0xbdc96c1b	-0.098350726
105	0xbd31ec1e	-0.04343807
106	0xbdc1bc20	-0.0945971
107	0x3ca36889	0.019947307
108	0x3da610ad	0.081086494
109	0xbcfe463f	-0.031039355
110	0xbe69fd56	-0.22850546
111	0x3d8b26d1	0.06794513
112	0x3d38d84a	0.045128144
113	0xbc1a54b5	-0.00941961
114	0x3e022a66	0.12711486
115	0xbd18ec12	-0.03733451
116	0xbc98d16c	-0.018654548
117	0xbe5ae69a	-0.2137703
118	0xbe28f70a	-0.16500488
119	0xbe0b5524	-0.13606697
120	0xbdaa04d3	-0.083017014
121	0x3d8417fc	0.06449887
122	0x3d534068	0.051575094
123	0xbd87d397	-0.066321544
124	0x3e0663a6	0.1312395
125	0xbc6073ec	-0.013699513
126	0xbe80bd56	-0.25144452
127	0xbc9701e7	-0.018433524

actor.mu.6.weight f4 [4, 128]
0	0xbf15bb51	-0.5848895
1	0xbf45a281	-0.77201086
2	0xbd701577	-0.05861422
3	0x3e3fdd86	0.18736848
4	0xbdb8a3ab	-0.09015592
5	0x3ed2f4d3	0.4120241
6	0x3f24eae8	0.6442094
7	0xbf48c393	-0.7842342
8	0xbe8daf51	-0.27672818
9	0x3d268cff	0.040661808
10	0x3d9b926c	0.07596287
11	0xbe49c0d0	-0.19702458
12	0xbe6b3f2b	-0.22973315
13	0x3e010f72	0.12603548
14	0x3e42707a	0.18988219
15	0xbead0a29	-0.33796814
16	0xbe606f71	-0.21917512
17	0x3e2feaa2	0.17179349
18	0x3e0a6ef3	0.13518886
19	0x3e904de3	0.28184423
20	0x3e013725	0.12618692
21	0x3e59b435	0.2126015
22	0xbda33ae3	-0.07970216
23	0x3ec8d2ef	0.3922343
24	0x3e31a472	0.17347887
25	0x3ea7a633	0.32743987
26	0x3e991ee1	0.2990637
27	0x3d03523e	0.032060854
28	0xbf2bfae0	-0.6717968
29	0xbf29d010	-0.66333103
30	0x3e9c8ee9	0.30577782
31	0xbe04d41a	-0.12971535
32	0xbf313a88	-0.69229937
33	0xbd554e3f	-0.052076574
34	0xbee4b2e5	-0.44667736
35	0x3e0c97de	0.13729808
36	0x3db558d7	0.088548355
37	0x3e51b5e0	0.20479536
38	0xbb2653b2	-0.0025379476
39	0xbebb68a0	-0.3660326
40	0xbe93b6c4	-0.28850377
41	0x3e346f6a	0.17620626
42	0xbe844883	-0.25836572
43	0x3dbaa6d9	0.09113855
44	0x3cdd2978	0.026997313
45	0xbf11f89b	-0.57019967
46	0xbf5a8dba	-0.8537251
47	0xbf06fe71	-0.52731997
48	0xbebf8a40	-0.37410164
49	0xbd705500	-0.058674812
50	0x3f4fc48d	0.8115929
51	0x3dcdd3c7	0.10050159
52	0xbea6da50	-0.32588434
53	0xbdfd51ea	-0.123691395
54	0xbe573c3e	-0.21019074
55	0xbf5b4e0b	-0.8566596
56	0x3dcc1921	0.099657305
57	0x3d827955	0.063707985
58	0xbe9578db	-0.29193768
59	0xbe6d21dc	-0.23157448
60	0xbe1430b9	-0.14471711
61	0xbd488fe7	-0.04896536
62	0xbd492674	-0.049108937
63	0xbd12dc28	-0.03585449
64	0xbce33efa	-0.02773999
65	0xbe32b5ad	-0.17452116
66	0xbf702cf9	-0.9381862
67	0x3e699ba7	0.22813283
68	0xbe8e808c	-0.27832448
69	0xbed16b7f	-0.40902326
70	0xbee4d73d	-0.44695464
71	0x3e9f24e9	0.31082848
72	0x3edfbede	0.43700308
73	0x3ebb04af	0.3652701
74	0x3f1d9233	0.6155121
75	0x3ecf89ae	0.4053473
76	0x3ef42096	0.4768111
77	0x3ec6d06a	0.38830882
78	0x3e9d3e7b	0.3071173
79	0x3d9e2d1b	0.07723447
80	0x3ede71bc	0.43446147
81	0x3ecd5008	0.40100121
82	0xbea8a2d9	-0.32936743
83	0x3dad99b3	0.084765814
84	0x3e7e8012	0.24853542
85	0xbda74b25	-0.081686296
86	0xbe5e2cd5	-0.2169679
87	0x3e599790	0.21249223
88	0x3eb4f0de	0.35340017
89	0xbf0cf1bd	-0.55056363
90	0x3f04a84d	0.51819307
91	0x3e84bc9f	0.25925156
92	0x3ece9b9e	0.40353101
93	0x3e1561ac	0.1458804
94	0xbe63d8b0	-0.22250628
95	0xbf1e6acc	-0.6188171
96	0x3db1895f	0.086687796
97	0x3ea9d5d9	0.33170965
98	0xbeca8710	-0.3955617
99	0xbe529aca	-0.2056686
100	0xbf6eec82	-0.9332963
101	0x3e30dda9	0.17272057
102	0x3d471f6a	0.048613943
103	0xbdf84648	-0.1212278
104	0xbe55c077	-0.20874201
105	0xbcfc0fca	-0.030769248
106	0xbc938485	-0.018007526
107	0x3ee4ae3a	0.44664174
108	0xbe4ebf08	-0.2019006
109	0x3f2baab4	0.6705735
110	0xbaad349f	-0.0013214535
111	0xbf45b973	-0.772361
112	0xbf0b5c22	-0.5443746
113	0x3f1be908	0.6090245
114	0xbeb1b680	-0.3470955
115	0x3ef9b242	0.48768812
116	0xbd8323b1	-0.06403292
117	0x3e4fedf6	0.20305619
118	0x3f3adbe3	0.7299177
119	0x3e999de4	0.30003273
120	0xbf6f3034	-0.9343293
121	0xbf322288	-0.6958394
122	0xbe2204d7	-0.15822159
123	0x3e29aa8d	0.16568966
124	0x3ea88f02	0.32921606
125	0xbea742d9	-0.32668188
126	0x3e5b22f0	0.21400046
127	0xbf46cb17	-0.7765364
128	0xbe365479	-0.17805661
129	0x3f00974c	0.5023086
130	0x3de68e49	0.112576075
131	0xbf83bf32	-1.0292723
132	0xbf017a4f	-0.50577253
133	0xbeb477f3	-0.35247764
134	0x3f4912bb	0.78544205
135	0xbedffc11	-0.43747
136	0xbea58c6f	-0.32333705
137	0xbe69c095	-0.2282737
138	0x3ed2cbb5	0.4117104
139	0xb9de4223	-0.00042392415
140	0xbe909e1a	-0.28245622
141	0xbf0b81af	-0.54494756
142	0xbf11305d	-0.5671442
143	0x3cbf1ae2	0.023328248
144	0xbd3967c9	-0.045264993
145	0x3f2732d4	0.6531193
146	0x3f0e0974	0.55483174
147	0xbe12ec78	-0.14348018
148	0xbe932010	-0.287354
149	0x3f044fe2	0.5168439
150	0xbe063e05	-0.13109596
151	0xbdf76f41	-0.12081767
152	0xbdf55a3a	-0.119801
153	0xbe1cb42f	-0.1530311
154	0x3ecf948a	0.40543014
155	0x3d17f41e	0.037098043
156	0x3e302cec	0.17204636
157	0xbd8d8065	-0.06909255
158	0xbe9cc1de	-0.3061666
159	0xbc21dabf	-0.009878813
160	0xbea27388	-0.31728768
161	0xbd82d06d	-0.0638741
162	0xbec5ea0c	-0.38655126
163	0xbf1c2cad	-0.6100567
164	0x3c982b1c	0.018575244
165	0xbea3aa1b	-0.31965718
166	0x3ca6e9a6	0.020375084
167	0x3f158142	0.58400357
168	0xbcf70622	-0.030154292
169	0xbf445059	-0.766851
170	0x3dc85d31	0.097834
171	0x3f54c002	0.8310548
172	0x3f175919	0.5912033
173	0x3e43d626	0.1912466
174	0x3f2b8c88	0.6701131
175	0x3e543049	0.20721544
176	0xbd942b76	-0.07234852
177	0x3e3748dc	0.17898887
178	0xbf042730	-0.51622295
179	0xbecd72c5	-0.40126625
180	0xbee869c4	-0.45393193
181	0x3e16551a	0.14680901
182	0x3f05f4b0	0.5232649
183	0xbe361b3c	-0.17783827
184	0x3f155b25	0.583422
185	0xbdd96091	-0.10614122
186	0xbee6eba3	-0.45101652
187	0xbc717cfc	-0.014739271
188	0x3de81736	0.11332552
189	0xbf1f61f2	-0.6225883
190	0xbf1e4830	-0.618289
191	0xbe5d0370	-0.21583343
192	0xbeea1b10	-0.45723772
193	0x3e448549	0.19191469
194	0xbea422f7	-0.32057926
195	0x3e3d57d0	0.18490529
196	0xbf0cc785	-0.5499194
197	0xbc717431	-0.014737175
198	0xbd9f756c	-0.07786068
199	0x3dc165a2	0.09443213
200	0x3d8c3ad9	0.06847162
201	0xbe6d15a9	-0.23152794
202	0x3d9051db	0.07046863
203	0x3e2aa915	0.16666062
204	0xbdc85823	-0.09782436
205	0xbeb0a198	-0.34498286
206	0x3e4e3380	0.20136833
207	0x3ef5b3c1	0.47988704
208	0x3d58bb51	0.052913014
209	0x3e2fb51c	0.17158931
210	0xbef2d526	-0.47428244
211	0xbf5cc044	-0.86230874
212	0x3f23069a	0.6368195
213	0x3ea8b0c7	0.3294737
214	0xbd7d98e9	-0.061913405
215	0x3e40fbb9	0.18846025
216	0x3d45b3c5	0.048267145
217	0xbf0a78bc	-0.54090476
218	0x3e18bf69	0.14916767
219	0x3d29960c	0.04140286
220	0x3ec736fa	0.3890913
221	0xbdb14b73	-0.08656969
222	0x3edd4abb	0.43221077
223	0xbe8d69d8	-0.27619815
224	0x3dc4cbcd	0.096091844
225	0xbf080714	-0.531358
226	0xbd31468e	-0.043280177
227	0xbcc5e369	-0.02415629
228	0x3ebe6271	0.3718448
229	0x3d91c4fe	0.071176514
230	0x3d304561	0.043034915
231	0x3f3f42f0	0.74711514
232	0x3d45df48	0.04830864
233	0x3e0ae8d7	0.13565384
234	0xbf32905c	-0.69751525
235	0x3eafd415	0.34341493
236	0x3ef5a1a6	0.4797489
237	0xbd0e8e93	-0.034803938
238	0xbe721c3e	-0.23643586
239	0xbe99a6d4	-0.30010092
240	0xbd86d2b4	-0.06583157
241	0xbdc822eb	-0.09772285
242	0x3f113dd9	0.56735
243	0xbe3b84a7	-0.18312322
244	0x3e907ef9	0.28221872
245	0x3e9145d0	0.28373575
246	0xbe33d453	-0.17561464
247	0x3f2b7db5	0.6698869
248	0x3ed484c2	0.41507536
249	0x3e2deebb	0.169856
250	0xbf71d60b	-0.9446723
251	0xbe7dd661	-0.2478881
252	0x3f0d6e1e	0.5524615
253	0x3e16a528	0.1471144
254	0x3e9c96f5	0.3058392
255	0x3dd1de68	0.10247499

actor.mu.6.bias f4 [4]
0	0xbd446b44	-0.04795386
1	0x3c80847b	0.015688172
2	0x3d9b0f51	0.07571281
3	0x3d266a4b	0.040628713

actor_target.mu.0.weight f4 [128, 33]
0	0x3c45497d	0.012041447
1	0xbdcce427	-0.10004454
2	0x3dda7665	0.10667113
3	0x3f679ab8	0.9047046
4	0xbf2e3798	-0.6805358
5	0xbe345f59	-0.17614497
6	0x3ebf0b8d	0.373135
7	0xbd450b92	-0.048106737
8	0x3e3ea213	0.18616514
9	0xbe56c040	-0.20971775
10	0xbe138013	-0.14404325
11	0x3aba426f	0.0014210473
12	0xbc07c75a	-0.008287275
13	0xbea3c9f9	-0.3199003
14	0xbd128338	-0.03576967
15	0xbe682faa	-0.22674432
16	0x3ee6c4c0	0.45071983
17	0x3d24d2bb	0.04024003
18	0xbde2b5d8	-0.1106984
19	0xbec39214	-0.38197386
20	0xbd74575e	-0.059653632
21	0xbd741351	-0.059588734
22	0x3d8108af	0.063004844
23	0x3d27e8a8	0.040993363
24	0x3c6f3d07	0.014601952
25	0x3ba6e9be	0.005093782
26	0xbd906cce	-0.07052003
27	0x3db12e5a	0.08651419
28	0x3dd27010	0.102752805
29	0x3d785de4	0.060636416
30	0xbce5fbcb	-0.028074166
31	0xbdea2700	-0.1143322
32	0x3fc180cb	1.511743
33	0x3e73d3c5	0.23811252
34	0xbd54338c	-0.05180697
35	0xbba716b7	-0.0050991434
36	0xbedad3f1	-0.42739823
37	0xbe5784e8	-0.21046793
38	0x3dc54d9d	0.09633944
39	0x3edec2db	0.43508038
40	0xbda58358	-0.080816925
41	0x3dc7ff39	0.09765477
42	0x3dc0084c	0.093765825
43	0x3e0d60d1	0.13806464
44	0xbda45f1b	-0.080259524
45	0x3d8551ec	0.06509766
46	0x3e2eb911	0.17062785
47	0x3e99769d	0.29973307
48	0x3e0a08b7	0.13479887
49	0x3bdae9d9	0.006680709
50	0x3e000e5e	0.1250548
51	0xbf1940fc	-0.59864783
52	0x3dcee68d	0.10102568
53	0xbdc7a5b3	-0.097484015
54	0x3e5a239c	0.21302646
55	0xbdebb4c1	-0.115090854
56	0x3e524532	0.20534208
57	0xbd4ff602	-0.05077172
58	0xbc90d66f	-0.017680375
59	0x3e00a5ba	0.1256322
60	0x3d2fc392	0.04291112
61	0xbdf59025	-0.11990384
62	0x3df2d36c	0.11856732
63	0x3dd09407	0.10184484
64	0x3db090b8	0.08621353
65	0x3fa237c8	1.2673273
66	0x3e001ffb	0.125122
67	0x3e8fd74d	0.2809395
68	0xbd0bd5d0	-0.034139454
69	0x3e9be1a6	0.30445594
70	0xbe5b1fff	-0.21398924
71	0xbf254bed	-0.6456898
72	0xbddb672d	-0.107130386
73	0xbdd671f2	-0.10470952
74	0x3e8b0d1a	0.27158433
75	0xbe05a269	-0.13050236
76	0xbe0dd244	-0.13849741
77	0x3d142ddf	0.03617656
78	0x3e4f7428	0.20259154
79	0xbf074dcc	-0.52853084
80	0x3e82f2d9	0.25575903
81	0x3de21e22	0.11040904
82	0xbe7ad7bd	-0.2449636
83	0xbf83da2d	-1.0300957
84	0xbe8c2d36	-0.27378243
85	0xbdd5bc1c	-0.1043627
86	0x3c3b0496	0.011414668
87	0xbb2cc06a	-0.0026359805
88	0xb9b22ade	-0.00033982744
89	0xbe8bc90d	-0.27301827
90	0x3d7d5761	0.06185091
91	0x3da2ac15	0.07942978
92	0x3d760092	0.060059138
93	0x3dd7f0ee	0.105440006
94	0xbe041f6c	-0.12902611
95	0x3d9ecbc8	0.07753712
96	0x3cee84d0	0.029116064
97	0x3dd4cf5c	0.10391113
98	0xbf1c20aa	-0.6098734
99	0x3d6e2d3a	0.0581486
100	0x3d95188e	0.07280074
101	0x3da52e2a	0.08065446
102	0x3f1cf084	0.613045
103	0xbedb2f81	-0.4280968
104	0x3ec7f2c1	0.39052394
105	0x3df03e29	0.11730606
106	0x3e940fa4	0.28918183
107	0x3e1f9a8d	0.155863
108	0x3d740ef0	0.059584558
109	0xbdd741dc	-0.105106086
110	0xbcd742a6	-0.026276898
111	0xbd6819ce	-0.056665234
112	0xbea334b9	-0.31876162
113	0x3e773c43	0.24144082
114	0xbdb96ce9	-0.09053976
115	0x3e80fcc9	0.2519286
116	0xbec0b170	-0.37635374
117	0xbe3ec5fb	-0.18630211
118	0x3f92f8ca	1.1482174
119	0x3ce601c5	0.028077016
120	0x3d3572ad	0.044298816
121	0xbd38e835	-0.045143325
122	0xbe06b961	-0.13156654
123	0x3dd66d4d	0.10470066
124	0xbc301f10	-0.010749593
125	0x3d9b86d1	0.075940736
126	0x3d7a0e13	0.06104858
127	0xbd08fe14	-0.033445433
128	0x3df59d98	0.11992949
129	0xbe81499c	-0.25251472
130	0x3daa0fa0	0.083037615
131	0xbf460a2d	-0.77359277
132	0xbe488924	-0.19583565
133	0xbe03110e	-0.12799475
134	0xbdd26a83	-0.10274222
135	0xbe48155e	-0.19539401
136	0x3e3ad8ae	0.18246719
137	0x3e8a0f66	0.26964873
138	0xbd76d943	-0.06026579
139	0xbe6bc453	-0.2302411
140	0xbc8c8b44	-0.01715625
141	0x3dc2badb	0.09508296
142	0xbd1e16b3	-0.038595866
143	0xbe218e9a	-0.15777054
144	0x3df76085	0.120789565
145	0x3dadfe03	0.084957145
146	0x3e97d16d	0.29651967
147	0x3eb719fe	0.35762018
148	0xbf23bae7	-0.63957065
149	0xbf83aea1	-1.0287668
150	0xbdebac74	-0.11507502
151	0x3dcd3ee1	0.10021759
152	0x3da80973	0.08204927
153	0xbe1d8887	-0.15384112
154	0xbea40743	-0.3203679
155	0xbddf5271	-0.10904396
156	0x3dc976cf	0.09837114
157	0x3da8964f	0.08231794
158	0x3debc0c9	0.1151138
159	0x3daa515f	0.083163016
160	0xbd790075	-0.06079145
161	0xbd84132e	-0.06448971
162	0x3daa1524	0.083048135
163	0xbd87aae5	-0.066243924
164	0x3ed25af8	0.4108503
165	0xbe5026c5	-0.2032729
166	0x3e4e43bd	0.20143028
167	0x3e21e207	0.15808879
168	0xbe008d3c	-0.12553877
169	0x3bb87649	0.005629335
170	0xbf2f4a18	-0.68472433
171	0x3e69f226	0.22846279
172	0xbc6a23aa	-0.01429073
173	0x3e919ca7	0.2843983
174	0x3d7d8ab1	0.061899845
175	0x3d39553a	0.045247294
176	0x3e5b90a9	0.21441902
177	0x3e06cba5	0.13163622
178	0x3d8e9a61	0.06963039
179	0x3eb22514	0.34793913
180	0xbd3661e8	-0.044526964
181	0x3cc58c1f	0.024114667
182	0x3d85cfea	0.06533797
183	0xbd1e1bfc	-0.038600907
184	0xbf46f0c1	-0.7771111
185	0xbdb5fe5f	-0.08886408
186	0x3ad2f1bd	0.0016093772
187	0xbc507dbe	-0.012725292
188	0xbe190dc0	-0.14946651
189	0x3e4901f6	0.19629654
190	0x3ddc5a50	0.10759413
191	0x3b8176a3	0.00395091
192	0xbcaec4a0	-0.021333992
193	0x3e842d81	0.25815967
194	0x3e130a90	0.14359498
195	0xbe8f6af4	-0.28011286
196	0xbd5df2f8	-0.05418679
197	0xbedd28d1	-0.43195203
198	0xbe35733d	-0.17719741
199	0xbdd63126	-0.10458593
200	0xbdcbca6d	-0.09950719
201	0xbe2952ff	-0.16535567
202	0x3df867da	0.12129183
203	0xbe5c9d81	-0.21544458
204	0xbed9156d	-0.4239916
205	0xbcb05857	-0.021526499
206	0x3d208bf5	0.039195973
207	0x3e94e143	0.2907811
208	0x3dd339ea	0.103137806
209	0x3de9658a	0.1139632
210	0xbc9ab029	-0.018882828
211	0x3ed37fa9	0.41308334
212	0xbd359bd0	-0.044338048
213	0xbd9fbe5a	-0.077999786
214	0x3f700bd1	0.9376803
215	0x3f74af8f	0.9558038
216	0x3f62a0c1	0.8852654
217	0xbe5d7944	-0.2162829
218	0x3c30744d	0.010769916
219	0x3e7ec05a	0.24878064
220	0x3ba38783	0.0049905195
221	0x3dcce367	0.10004311
222	0x3c613ef1	0.013747917
223	0xbda19c97	-0.07891195
224	0xbe7ad875	-0.24496634
225	0xbdfbd059	-0.122955985
226	0x3e0bce07	0.13652812
227	0x3e16f6e4	0.14742619
228	0xbe1d5202	-0.15363315
229	0xbdea7ca2	-0.11449553
230	0x3f4ba476	0.7954782
231	0xbdce61f3	-0.10077276
232	0x3da23b41	0.07921458
233	0xbdaf037d	-0.08545587
234	0xbf315bee	-0.692809
235	0x3c15499e	0.00911179
236	0xbec6ea5d	-0.3885068
237	0xbf2082a2	-0.6269933
238	0xbdb13ff5	-0.08654777
239	0x3e2dd6ff	0.16976546
240	0x3ca51d01	0.020155432
241	0xbe0e52a1	-0.13898708
242	0x3d069488	0.032856494
243	0x3cf25051	0.029579313
244	0x3d741f29	0.05960003
245	0xbe585bca	-0.21128765
246	0x3dfffa6f	0.12498938
247	0x3da6dd44	0.08147672
248	0xbefae7ae	-0.49004883
249	0xbeaf98e0	-0.34296322
250	0x3cd056fa	0.025432099
251	0xbbebd78f	-0.0071973274
252	0xbe1a6498	-0.15077436
253	0x3e2e860f	0.17043327
254	0x3c8754ca	0.016519923
255	0x3ced02b9	0.028931962

actor_target.mu.0.bias f4 [128]
0	0xbc18aee9	-0.009319046
1	0x3ca0950e	0.019602325
2	0x3dc1683a	0.09443708
3	0xbe6e5694	-0.23275214
4	0x3d740ee7	0.059584524
5	0xbe516174	-0.20447332
6	0xbdee0bf4	-0.11623374
7	0xbe4b982e	-0.1988227
8	0xbe6133c5	-0.21992405
9	0xbe24cd60	-0.1609397
10	0xbd1c9419	-0.038227174
11	0x3d59081e	0.052986257
12	0xbd9eebf2	-0.07759847
13	0x3ce7443d	0.02823078
14	0xbe819330	-0.25307608
15	0x3db07c5d	0.086174704
16	0xbdbe4376	-0.09290211
17	0x3d812d98	0.063075244
18	0xbbacda61	-0.005275056
19	0x3d1b004e	0.037842087
20	0xbe5e24b9	-0.21693696
21	0xbe99623f	-0.29957768
22	0x3dcbbce4	0.099481374
23	0x3e0954fe	0.13411328
24	0xbe04696b	-0.12930839
25	0xbe267486	-0.16255388
26	0x3db8dc55	0.090264
27	0x3e12d34e	0.14338419
28	0xbd6f75b7	-0.05846187
29	0x3caae073	0.020858979
30	0xbd20b4ac	-0.039234802
31	0xbe9da5ce	-0.3079056
32	0xbe7dcceb	-0.24785201
33	0xbb21b767	-0.0024675967
34	0xbd3dada6	-0.046308182
35	0xbe2fcdf8	-0.17168415
36	0xbd58954d	-0.05287676
37	0xbd52d9bd	-0.051477183
38	0xbe7faf26	-0.24969158
39	0xbd95dc5c	-0.07317421
40	0xbe76fd17	-0.24119984
41	0xbe39d13a	-0.1814622
42	0x3e61cdba	0.22051135
43	0xbc0e2673	-0.008676159
44	0xbd1ec30d	-0.038760234
45	0xbd142e9a	-0.036177255
46	0xbe3535c7	-0.17696296
47	0x3dce8ebd	0.10085819
48	0xbeb0736f	-0.3446307
49	0xbd60bca7	-0.054867413
50	0xbeef865f	-0.46782205
51	0x3ce62747	0.0280949
52	0xbe15b0c6	-0.14618215
53	0x3dc5df43	0.096617244
54	0xbe4a8dde	-0.1978068
55	0xbd24e854	-0.040260628
56	0xbd822d92	-0.06356348
57	0xbd5d63e1	-0.05405033
58	0xbd4df27b	-0.050280076
59	0xbed905cb	-0.42387232
60	0xbe7068d7	-0.23477493
61	0xbeb7fde1	-0.35935882
62	0xbbe749eb	-0.0070583723
63	0xbcc3dfa7	-0.023910357
64	0xbd91186c	-0.07084736
65	0x3da27b7a	0.079337075
66	0xbd32938e	-0.04359775
67	0xbe497204	-0.196724
68	0x3dbe09e0	0.09279227
69	0xba1761b3	-0.0005774751
70	0x3d774dbe	0.060376875
71	0xbdaf8a1d	-0.08571265
72	0x3de3760a	0.111064985
73	0xbcf3b9d0	-0.029751688
74	0xbe4420ca	-0.19153133
75	0xbe16b588	-0.14717686
76	0x3db5014b	0.08838137
77	0xbe89df2c	-0.2692808
78	0xbe4fa300	-0.20277023
79	0xbe496246	-0.19666395
80	0xbddaae66	-0.10677795
81	0x3d6eebe1	0.05833042
82	0xbdeb9eb4	-0.115048796
83	0x3dab43af	0.08362519
84	0xbe18f8ef	-0.1493871
85	0x3d9ddf03	0.07708552
86	0xbe24bf16	-0.16088519
87	0xbdf89284	-0.12137321
88	0x3d508bb6	0.05091449
89	0x3c82a554	0.015947975
90	0xbcb44908	-0.02200748
91	0x3c36933e	0.011143504
92	0xbb9c9b14	-0.004779229
93	0xbe7c9647	-0.24666701
94	0x3d2c4c1c	0.04206477
95	0xbe876006	-0.26440448
96	0x3e8f2b8d	0.27962914
97	0x3d142208	0.036165267
98	0xbde1c66d	-0.11024175
99	0x3cc5fdae	0.024168815
100	0xbe5a77e0	-0.21334791
101	0xbe590cfa	-0.21196356
102	0xbc5d6588	-0.0135129765
103	0xbe5e0ba3	-0.21684127
104	0xbd4684d9	-0.048466537
105	0x3e07a62a	0.1324698
106	0xbcbc82a2	-0.02301151
107	0xbe08f5aa	-0.13374963
108	0x3d293b43	0.041316282
109	0xbe294fc8	-0.1653434
110	0xbc3ba98f	-0.011454
111	0xbe29b430	-0.16572642
112	0x3c94aa4b	0.018147608
113	0x3d2f92a8	0.04286447
114	0xbdcb9185	-0.09939865
115	0xbe446475	-0.19178946
116	0xbe3fc9aa	-0.18729272
117	0x3b7a08a1	0.0038152116
118	0xbe1f3dcf	-0.15550922
119	0xbe57a27e	-0.2105808
120	0x3cde5a48	0.027142659
121	0xbe1b3c6e	-0.15159771
122	0xbe87a1c2	-0.264906
123	0xbe527a95	-0.20554574
124	0x3e1531bd	0.14569755
125	0xbdb45f03	-0.088071845
126	0xbe623585	-0.22090729
127	0xbe9bcede	-0.30431265
